NO VISIBLE DEVICES!!!!
GPUS: []
NO GPU
Params: Ntraining_18_rotation_0
File name base: ./results/base__ddtheta_1_hidden_500_250_125_75_36_17_Ntraining_18_rotation_0
Model: "sequential"
_________________________________________________________________
 Layer (type)                Output Shape              Param #   
=================================================================
 Hidden_0 (Dense)            (None, 500)               480500    
                                                                 
 Hidden_1 (Dense)            (None, 250)               125250    
                                                                 
 Hidden_2 (Dense)            (None, 125)               31375     
                                                                 
 Hidden_3 (Dense)            (None, 75)                9450      
                                                                 
 Hidden_4 (Dense)            (None, 36)                2736      
                                                                 
 Hidden_5 (Dense)            (None, 17)                629       
                                                                 
 Output (Dense)              (None, 1)                 18        
                                                                 
=================================================================
Total params: 649,958
Trainable params: 649,958
Non-trainable params: 0
_________________________________________________________________
None
Model: "sequential"
_________________________________________________________________
 Layer (type)                Output Shape              Param #   
=================================================================
 Hidden_0 (Dense)            (None, 500)               480500    
                                                                 
 Hidden_1 (Dense)            (None, 250)               125250    
                                                                 
 Hidden_2 (Dense)            (None, 125)               31375     
                                                                 
 Hidden_3 (Dense)            (None, 75)                9450      
                                                                 
 Hidden_4 (Dense)            (None, 36)                2736      
                                                                 
 Hidden_5 (Dense)            (None, 17)                629       
                                                                 
 Output (Dense)              (None, 1)                 18        
                                                                 
=================================================================
Total params: 649,958
Trainable params: 649,958
Non-trainable params: 0
_________________________________________________________________
None
Epoch 1/100
  1/738 [..............................] - ETA: 8:19 - loss: 55.6646 - fvaf_single: -0.0408 - root_mean
…
